PPO/model/model.pt (torch, 18176 bytes, 4 tensors)

weight f4 [256, 11]
0	0xbe702231	-0.23450543
1	0xbe2153c4	-0.1575461
2	0xbe95a657	-0.2922847
3	0x3e68a0dc	0.22717613
4	0xbe7b77ea	-0.24557462
5	0x3d9cbc93	0.07653155
6	0x3e65899f	0.2241578
7	0xbb7459cc	-0.0037284968
8	0xbd79507e	-0.06086778
9	0xbdc69f12	-0.09698309
10	0x3d98b378	0.07456106
11	0xbe94c1dd	-0.29054156
12	0xbdd22cc6	-0.10262446
13	0xbe4d6545	-0.20058163
14	0xbda1cdaf	-0.07900559
15	0x3d06d14a	0.032914437
16	0x3e5e8b24	0.21732765
17	0xbdd750fc	-0.105134934
18	0xbe882e05	-0.2659761
19	0xbda588bb	-0.0808272
20	0x3be40212	0.0069582546
21	0xbe73afb2	-0.23797491
22	0xbeb01b5a	-0.34395868
23	0x3dce7172	0.10080232
24	0x3f4fdfce	0.81200874
25	0xbe47131d	-0.19440885
26	0x3b3b64bb	0.0028593976
27	0x3de82d02	0.113367096
28	0x3e76708b	0.24066369
29	0x3c32e912	0.010919826
30	0xbe84c11a	-0.25928575
31	0x3deaf925	0.11473302
32	0xbd420ed7	-0.047377434
33	0xbe9b0846	-0.3027975
34	0x3910e2c5	0.00013817388
35	0xbe06bfa7	-0.13159047
36	0xbe230ea7	-0.15923558
37	0x3f080b7f	0.5314254
38	0xbe4309d0	-0.19046712
39	0x3ef2ecc6	0.4744627
40	0xbec78f4c	-0.38976514
41	0x3ea4c906	0.3218462
42	0xbeabc3e3	-0.33547887
43	0x3e5719d5	0.21005948
44	0xbec5028c	-0.38478506
45	0x3f1e8b32	0.61931145
46	0xbe581efc	-0.2110557
47	0xbf1b4a8d	-0.6066063
48	0xbf01d02b	-0.50708264
49	0x3e8c3c4f	0.27389762
50	0x3e98bc7e	0.29831308
51	0xbf0550be	-0.5207633
52	0xbefae2ce	-0.49001163
53	0x3e9e0915	0.30866304
54	0x3e6b922d	0.2300498
55	0xbd68c769	-0.056830797
56	0x3d9419bb	0.0723147
57	0xbf1b0857	-0.605596
58	0xbe87eee8	-0.26549459
59	0xbe6d3b89	-0.23167242
60	0x3eb7dc47	0.35910246
61	0x3eb90521	0.36136726
62	0x3e3615c3	0.17781739
63	0x3e287c11	0.16453578
64	0xbec02e6f	-0.37535426
65	0xbef16e85	-0.47154632
66	0xbe353e5f	-0.17699574
67	0x3ec497f9	0.38397196
68	0xbdaaadac	-0.083339065
69	0xbe56b291	-0.20966555
70	0xbde6c332	-0.11267699
71	0xbe91cebd	-0.2847804
72	0xbd188d08	-0.037243873
73	0xbcc35222	-0.023842875
74	0xbe41e210	-0.18933892
75	0xbc2dec3c	-0.010615405
76	0x3d8c3d87	0.06847673
77	0x3e311549	0.17293276
78	0x3e6daae2	0.23209718
79	0x3e04f21f	0.12982987
80	0x3ce012e0	0.02735275
81	0xbe5b3414	-0.21406585
82	0xbe00451b	-0.12526362
83	0xbe82930a	-0.25502807
84	0xbd9b70ef	-0.075899
85	0x3df3ec60	0.11910319
86	0xbe88ba14	-0.26704466
87	0xbdef9cf9	-0.11699862
88	0xbe6477cc	-0.22311324
89	0x3efd3c63	0.49460134
90	0xbd831286	-0.064000174
91	0x3e3a135b	0.18171446
92	0xbf1bd921	-0.6087819
93	0xbe2743f1	-0.16334511
94	0x3f00f769	0.5037752
95	0xbf020427	-0.50787586
96	0xbe9aa162	-0.3020125
97	0xbea4c4b2	-0.32181317
98	0x3eb41e26	0.3517925
99	0xbbc672ee	-0.006056181
100	0xbc17079c	-0.009218123
101	0xbc1e712a	-0.009670535
102	0x3e2ddab0	0.16977954
103	0x3eb5853d	0.35453215
104	0xbe5c058d	-0.21486492
105	0xbe87e881	-0.26544574
106	0xbd682e31	-0.056684677
107	0xbe8be9a7	-0.273267
108	0x3eaeef0c	0.34166753
109	0x3e8e14c7	0.27750227
110	0x3ec3cff1	0.38244584
111	0xbe8094af	-0.25113437
112	0xbe74ddce	-0.23912737
113	0xbecfb350	-0.40566492
114	0xbddce0a8	-0.10785037
115	0x3e9671d6	0.29383725
116	0x3e103509	0.14082731
117	0x3e7b1bd2	0.24522331
118	0x3ea454b3	0.3209587
119	0xbef87c62	-0.48532397
120	0xbe8d8326	-0.2763912
121	0x3e9556a1	0.29167655
122	0xbe609e86	-0.21935472
123	0xbe88863d	-0.26664916
124	0x3d9d3653	0.07676377
125	0xbeaf1adc	-0.3420018
126	0x3dd81f30	0.105528235
127	0x3e367b3d	0.17820449
128	0x3e0063a3	0.12538008
129	0x3e2b6912	0.167393
130	0xbd35dc93	-0.04439981
131	0xbec0bca2	-0.37643915
132	0x3e99df83	0.30053338
133	0x3cc8ee63	0.024527734
134	0x3dfd4d46	0.12368254
135	0xbe11fd8c	-0.14256877
136	0xbe673b14	-0.2258113
137	0xbe598d53	-0.21245317
138	0xbe22265b	-0.15834944
139	0x3ecb9e12	0.39769036
140	0x3eea7bc4	0.4579755
141	0x3ef3d7d2	0.47625595
142	0x3ebe01d7	0.3711078
143	0x3ddd3d19	0.10802669
144	0xbf036a97	-0.5133452
145	0x3e2caf47	0.16863738
146	0x3e7ce2ce	0.24695894
147	0xbe51f609	-0.20504011
148	0x3e62c012	0.22143582
149	0xbe3774a9	-0.17915596
150	0xbe6544c3	-0.22389512
151	0x3e43ea9c	0.19132465
152	0x3e4e35ce	0.20137712
153	0x3e1d046f	0.15333723
154	0xbee51074	-0.44739115
155	0x3f00bfd5	0.5029271
156	0xbe5241d8	-0.2053293
157	0x3e4a9431	0.19783093
158	0xbc5d3b70	-0.013502941
159	0x3de8c9de	0.11366628
160	0xbe81a484	-0.25320828
161	0x3ebdfc81	0.37106708
162	0xbdafb824	-0.08580044
163	0xbdb4f05b	-0.08834907
164	0x3ba46052	0.005016365
165	0xbefa053f	-0.48832127
166	0x3f105034	0.5637238
167	0xbd149e3f	-0.036283728
168	0x3e8abefa	0.2709883
169	0x3e6be268	0.23035586
170	0x3e38c40e	0.18043539
171	0xbe66c8a2	-0.22537473
172	0x3ed01aba	0.4064539
173	0x3e37d0f2	0.179508
174	0x3dad5543	0.08463528
175	0x3d53d8bb	0.051720362
176	0x3e86c922	0.26325327
177	0x3eadf2fb	0.33974442
178	0x3f108941	0.5645943
179	0x3c41e19c	0.011833575
180	0xbc10cfe4	-0.0088386275
181	0xbdc5d201	-0.09659196
182	0xbdcc0df2	-0.09963597
183	0x3e9b497a	0.30329496
184	0x3e2bc5eb	0.16774718
185	0x3ea581a8	0.32325482
186	0xbd0fb298	-0.03508243
187	0x3e8c1a9c	0.2736405
188	0x3e4930ee	0.19647571
189	0x3df333ba	0.118751004
190	0xbe73c1cf	-0.23804401
191	0x3e9e223d	0.30885497
192	0xbea4bace	-0.3217377
193	0x3e73dafe	0.23814008
194	0x3e9072fd	0.2821273
195	0xbec602b6	-0.38673943
196	0x3eb3c43c	0.35110652
197	0xbe84a507	-0.25907156
198	0xbdae8948	-0.08522278
199	0xbd171757	-0.036887493
200	0x3eb208ea	0.34772426
201	0x3eac6da4	0.336774
202	0x3e910547	0.2832434
203	0xbf1eaf88	-0.6198659
204	0xbc979783	-0.018504864
205	0x3ec8bb6e	0.39205498
206	0xbd1935db	-0.037404876
207	0xbea326d1	-0.31865552
208	0xbedd524c	-0.4322685
209	0xbb52f70d	-0.003219071
210	0xbcc7e35d	-0.024400407
211	0xbd1f4a30	-0.03888911
212	0xbece2bd0	-0.402678
213	0x3e7bc036	0.24585041
214	0xbdab633e	-0.08368538
215	0x3e5064db	0.20350973
216	0x3f291e42	0.66061795
217	0xbdd02c7d	-0.101647355
218	0x3e9638d7	0.2934024
219	0xbb9aed03	-0.004727961
220	0xbe5ae7c9	-0.21377482
221	0x3dc2816b	0.09497341
222	0xbe7c6c29	-0.24650635
223	0x3ef64bca	0.48104697
224	0x3e9cdb73	0.30636176
225	0x3eb368f3	0.35041007
226	0x3ee5aa31	0.44856408
227	0xbde2f989	-0.11082751
228	0xbebb49fd	-0.36579886
229	0xbdcddca1	-0.10051847
230	0x3d2c5b19	0.042079065
231	0x3e5b90a7	0.21441899
232	0x3da01463	0.078163885
233	0x3edae133	0.42749938
234	0xbd404c05	-0.046947498
235	0xbd892c43	-0.066978954
236	0xbc9b7a77	-0.018979294
237	0xbd9777ae	-0.07395874
238	0x3e57a751	0.2105992
239	0x3e85a043	0.26098832
240	0x3e87175c	0.2638501
241	0x3e7dc9f0	0.24784064
242	0x3ead528c	0.3385204
243	0x3e75d0e6	0.2400547
244	0x3df7aa4c	0.120930284
245	0xbe485db3	-0.19566993
246	0xbda0956a	-0.078409985
247	0xbe3833f5	-0.1798857
248	0xbc1f2a25	-0.009714638
249	0x3e9527e4	0.29131997
250	0x3e6da4d4	0.23207408
251	0x3ea333b6	0.3187539
252	0xbd586052	-0.052826233
253	0xbdf298c8	-0.11845547
254	0xbe379a20	-0.17929888
255	0x3f1f5ba5	0.62249213

bias f4 [256]
0	0xbea0c1ba	-0.31397802
1	0xbe65ba04	-0.2243424
2	0x3e8730f3	0.26404533
3	0x3e02a4f2	0.12758234
4	0x3e2a4011	0.16626002
5	0x3df9b197	0.12192076
6	0xbe4303c4	-0.19044405
7	0xbe4e196e	-0.20126888
8	0xbe258ce8	-0.16167033
9	0xbdb146da	-0.08656092
10	0x3dd72e56	0.10506885
11	0x3e839c0a	0.25704986
12	0xbe88ada1	-0.26694968
13	0xbe1948d4	-0.14969188
14	0xbe3f6129	-0.18689407
15	0xbebae060	-0.3649931
16	0xbebbec72	-0.3670383
17	0xbe340355	-0.17579396
18	0x3d0cc673	0.034368943
19	0xbe8ab924	-0.27094376
20	0x3fa0a137	1.2549199
21	0xbe7f0153	-0.24902849
22	0xbe1eb575	-0.15498908
23	0xbd4564f8	-0.048191994
24	0xbe847cd4	-0.25876486
25	0xbe3d2d5b	-0.18474333
26	0xbe00197b	-0.1250972
27	0xbe3f2b52	-0.18668869
28	0xbe04edeb	-0.12981384
29	0x3ed312aa	0.41225177
30	0xbe876970	-0.2644763
31	0x3e2ba836	0.16763386
32	0xbdcf21a6	-0.1011384
33	0xbd555407	-0.052082088
34	0xbe9223d6	-0.28542966
35	0xbcf571aa	-0.029961426
36	0xbe18f440	-0.14936924
37	0x3ee6dd29	0.45090607
38	0x3dd6776e	0.10471998
39	0xbdda022f	-0.10644948
40	0xbea00484	-0.31253445
41	0x3ef10779	0.47076014
42	0xbe76f3d6	-0.24116454
43	0xbea0ba9b	-0.3139237
44	0xbee6ad52	-0.45054108
45	0xbeda1f0a	-0.42601806
46	0xbdad591d	-0.08464263
47	0x3dcb7026	0.099335
48	0xbeb119e0	-0.34590054
49	0x3d3b3753	0.04570706
50	0x3e88d7b8	0.2672708
51	0x3ec1c6e4	0.37847054
52	0xbe2b0c6f	-0.16703962
53	0xbe89c9bc	-0.26911724
54	0x3d8fd513	0.070230626
55	0xbeb6bdad	-0.35691586
56	0x3e4496e8	0.19198191
57	0x3e5ac3af	0.2136371
58	0x3e6c28e8	0.2306248
59	0xbdfbe8ad	-0.12300239
60	0xbe40f07a	-0.18841735
61	0x3d698cbc	0.05701898
62	0x3e957c14	0.29196227
63	0xbe01cfca	-0.12676921
64	0xbe1b1ddd	-0.1514811
65	0x3d873299	0.066014476
66	0xbc51f87e	-0.012815593
67	0xbe266010	-0.16247582
68	0xbdbfa9a4	-0.09358528
69	0x3daefaf1	0.08543957
70	0xbe08c899	-0.13357772
71	0xbd9fc2f8	-0.07800859
72	0xbd0c6c8c	-0.034283206
73	0x3f1767fa	0.5914303
74	0xbe13f336	-0.14448246
75	0x3d1b722f	0.03795069
76	0xbe188fb2	-0.14898565
77	0x3d1eb898	0.03875026
78	0xbe3b8265	-0.1831146
79	0x3e910e08	0.28331017
80	0xbe2a7797	-0.16647182
81	0xbe649f89	-0.22326483
82	0x3e8c0026	0.27343863
83	0x3e6bf346	0.2304202
84	0xbe522f2b	-0.20525806
85	0x3dd257c8	0.10270649
86	0xbe187589	-0.14888586
87	0xbdabd0a3	-0.08389404
88	0xbed1a723	-0.40947828
89	0x3eadc072	0.33935887
90	0xbe6ce900	-0.23135757
91	0xbe83effb	-0.25769028
92	0xbe697107	-0.22797023
93	0xbd95ab5c	-0.07308075
94	0x3e413cce	0.18870851
95	0xbdb6d4d2	-0.08927311
96	0x3e466d4d	0.19377632
97	0x3e1a716f	0.15082334
98	0x3f263b3f	0.6493415
99	0xbdaf1eb5	-0.08550779
100	0xbd82e590	-0.06391442
101	0xbe01a5b2	-0.12660864
102	0xbe2d7cf8	-0.16942203
103	0xbe8035a7	-0.25040933
104	0xbe4a5746	-0.19759855
105	0xbe89f1f4	-0.26942408
106	0x3eb5bf61	0.35497573
107	0xbe3915f6	-0.18074784
108	0x3d8d21cf	0.06891214
109	0x382678b8	3.9689912e-05
110	0x3cd7ef53	0.026359236
111	0xbe851e9a	-0.2599991
112	0xbe947b90	-0.2900052
113	0x3dab8615	0.083751835
114	0xbc7a077a	-0.015260572
115	0x3e2c9694	0.16854316
116	0x3e0194cc	0.12654418
117	0x3d993dfa	0.07482524
118	0x3f564618	0.83700705
119	0xbdd48d70	-0.103785396
120	0x3dda3581	0.10654736
121	0xbe27bec0	-0.16381359
122	0xbe0175dc	-0.12642616
123	0xbe8069ba	-0.25080663
124	0xbd639c15	-0.055568773
125	0xbe8d34a6	-0.2757923
126	0x3d55589d	0.05208646
127	0xbdb262f8	-0.08710283
128	0xbead55dd	-0.3385457
129	0x3ca27ff5	0.019836405
130	0xbe1e67bf	-0.15469263
131	0xbe46c9d7	-0.19412933
132	0x3ca1174f	0.019664435
133	0xbdfaa754	-0.122389466
134	0x3e7cc542	0.24684623
135	0xbe1e8e0f	-0.15483879
136	0xbeca7117	-0.39539406
137	0xbcee0fee	-0.02906033
138	0xbbba0ac0	-0.005677551
139	0x3e5d32e9	0.21601452
140	0xbc8dd084	-0.017311342
141	0xbe70f804	-0.2353211
142	0xbe5e1f5b	-0.21691649
143	0xbd7b2e36	-0.061323367
144	0xbe8203b1	-0.2539344
145	0x3dc74357	0.09729641
146	0x3da200f2	0.079103366
147	0xbdef0adb	-0.116719924
148	0x3de3cc6a	0.11122973
149	0xbd1d1116	-0.038346373
150	0xbe44218b	-0.1915342
151	0x3f46d8b9	0.7767444
152	0xbe918523	-0.28421888
153	0xbd0c8d6c	-0.034314558
154	0x3e44f369	0.19233479
155	0xbd2b94ea	-0.041890062
156	0xbe58b606	-0.21163186
157	0xbe9e77f7	-0.309509
158	0xbd81523c	-0.06314513
159	0x3c5054fa	0.0127155725
160	0xbea83445	-0.32852378
161	0x3eb8ae01	0.36070254
162	0xbe2670f6	-0.16254029
163	0xbc480aa6	-0.01220957
164	0x3d45a6e7	0.048254874
165	0xbd971457	-0.073769264
166	0x3d8c7bd5	0.068595566
167	0x3e114219	0.1418537
168	0xbe219203	-0.15778355
169	0xbe02ea5b	-0.12784712
170	0x3d9cd31b	0.07657453
171	0xbe8e4ace	-0.27791446
172	0x3e820fd0	0.2540269
173	0xbe690c58	-0.22758615
174	0x3e8e21ed	0.27760258
175	0x3bf55ab2	0.0074876184
176	0x3eff3c09	0.4985049
177	0xbe9e5b46	-0.3092901
178	0x3e9e1bfa	0.3088072
179	0xbe1b62d4	-0.15174419
180	0xbc68a7d8	-0.014200173
181	0xbe76b8d8	-0.2409395
182	0x3e27c5f3	0.16384105
183	0x3e97d229	0.29652527
184	0x3ef689dc	0.48152053
185	0xbe82cab9	-0.2554529
186	0xbd50d05f	-0.05097997
187	0x3df203f3	0.118171595
188	0x3f78e180	0.97219086
189	0x3d13e6db	0.036108833
190	0x3e80751a	0.2508934
191	0x3c66a8da	0.014078343
192	0xbe257f03	-0.16161732
193	0x3e1a9f83	0.15099911
194	0x3ec9b159	0.39393118
195	0xbcf4308a	-0.029808301
196	0x3d69dfca	0.057098188
197	0xbd192664	-0.037390128
198	0x3f3b95ab	0.7327525
199	0xbe856f05	-0.26061264
200	0xbdf25eff	-0.11834525
201	0x3e3e995b	0.18613188
202	0x3c8f79ef	0.017514197
203	0x3dad5a33	0.0846447
204	0xbe1507b2	-0.14553717
205	0x3cd8401f	0.026397763
206	0xbdc637d8	-0.0967862
207	0xbe543c90	-0.20726228
208	0x3e2df675	0.16988547
209	0x3d59171b	0.05300055
210	0x3f882344	1.0635762
211	0xbe022ebd	-0.12713142
212	0xbe9a3ea4	-0.30125916
213	0x3e437235	0.19086535
214	0x3e6bf7d9	0.23043765
215	0xbe8c2707	-0.27373526
216	0xbea693cc	-0.32534635
217	0xbbc2ae25	-0.00594117
218	0xbafec78e	-0.0019438134
219	0xbdf5c6d2	-0.120008126
220	0x3e619fe6	0.22033653
221	0x3bddc272	0.0067675645
222	0x3ebf0e0a	0.37315398
223	0xbd83b96a	-0.06431849
224	0xbe49cbcf	-0.19706653
225	0xbe2873a2	-0.1645036
226	0xbe1d044f	-0.15333675
227	0x3f033ab5	0.51261455
228	0x3d8b575b	0.06803771
229	0xbdb60881	-0.08888341
230	0xbe4f7e51	-0.2026303
231	0xbe2d5b2f	-0.16929315
232	0x3ec2f782	0.38079458
233	0xbd840228	-0.06445724
234	0xbead4fee	-0.33850044
235	0xbec25b63	-0.37960348
236	0xbe0273a4	-0.12739426
237	0xbe2d8a6e	-0.16947338
238	0xbe29768e	-0.16549131
239	0xbd83906f	-0.06424033
240	0xbd9e2ae6	-0.07723026
241	0xbebc4d90	-0.36777925
242	0xbe3b02e0	-0.18262815
243	0xbdca7e43	-0.09887364
244	0xbdcd17b2	-0.10014285
245	0xbed13a5c	-0.40864837
246	0xbd776e41	-0.06040788
247	0x3f4886b7	0.7833056
248	0xbeb4764c	-0.35246503
249	0xbdbdecde	-0.092736945
250	0x3e0d50c4	0.13800341
251	0xbd1df0be	-0.038559668
252	0xbe6611a0	-0.22467661
253	0xbeaffe8f	-0.343739
254	0xbdf59924	-0.119921
255	0x3dc72b10	0.097250104

weight f4 [3, 256]
0	0x3c46888f	0.012117519
1	0x3c2357ba	0.009969646
2	0x3e185acf	0.1487839
3	0x3eee45e4	0.46537697
4	0x3f04c1e1	0.51858336
5	0xbc729a33	-0.014807272
6	0x3c3ef9d9	0.011656248
7	0xba5e5906	-0.00084818935
8	0x3ea5b460	0.32364178
9	0xbe7c866a	-0.2466065
10	0xbde531f1	-0.11191166
11	0x3d8f703e	0.070038304
12	0xbec6d2a3	-0.38832578
13	0xbdb0ed78	-0.086390436
14	0x3d6ca2e2	0.057772525
15	0x3b6a8bb7	0.0035788843
16	0xbdb63d6f	-0.08898436
17	0xbebc922f	-0.3683028
18	0x3e949aaf	0.29024264
19	0xbef9cdc8	-0.4878981
20	0x3ebea54c	0.37235487
21	0xbdcaa08e	-0.098939046
22	0xbe05e766	-0.13076553
23	0x3ee1230e	0.43972057
24	0xbe9470e2	-0.28992373
25	0xbe76b785	-0.24093445
26	0xbef8bbdc	-0.48580825
27	0x3c135208	0.008991726
28	0xbec382fb	-0.38185868
29	0x3e84aaf7	0.25911686
30	0xbd0f7453	-0.035023045
31	0xbdba1284	-0.09085563
32	0xbede55ce	-0.4342484
33	0xbf145de5	-0.5795577
34	0xbdc1d8df	-0.09465193
35	0xbe3f5ad4	-0.18686992
36	0xbe8761ec	-0.26441896
37	0x3e4b64f9	0.19862737
38	0x3d97092e	0.07374798
39	0xbe62a9e3	-0.22135119
40	0xbe5cb6f1	-0.21554162
41	0x3e6badfb	0.23015587
42	0xbec696e5	-0.38786998
43	0xbeadf76d	-0.33977833
44	0xbe927daf	-0.28611514
45	0xbdc45a66	-0.09587555
46	0xbd505c67	-0.05086937
47	0x3ec859a5	0.39130893
48	0xbe27f6a4	-0.1640268
49	0x3dc82045	0.0977178
50	0xbd305f1a	-0.043059446
51	0x3e6583a5	0.224135
52	0xbe91da17	-0.28486702
53	0xbd9f5bdf	-0.07781195
54	0x3d3e1089	0.046402488
55	0xbe6875c5	-0.22701176
56	0x3edcc20c	0.43116796
57	0x3f0b34c2	0.5437738
58	0x3ed6dddc	0.4196614
59	0x3e05701c	0.13031048
60	0xbd9bc4d9	-0.07605905
61	0x3efeda5f	0.4977598
62	0x3e20bbc4	0.15696627
63	0xbdce7e61	-0.100826986
64	0xbf073d65	-0.52828056
65	0xbeb58b82	-0.35458
66	0x3de8b358	0.11362332
67	0xbc84be5d	-0.016204054
68	0xbeee492f	-0.4654021
69	0xbe3345af	-0.17507051
70	0xbf0f3224	-0.55935884
71	0xbeb731b5	-0.3578011
72	0x3cebea18	0.028798148
73	0x3ebbd1cc	0.366835
74	0xbe12f4ed	-0.14351244
75	0xbece6718	-0.4031303
76	0x3dc3286c	0.09529194
77	0x3e811afe	0.25215906
78	0xbd12c2e4	-0.035830393
79	0x3c67b7fd	0.014142987
80	0x3e1bcffd	0.1521606
81	0x3d187dfc	0.037229523
82	0x3d94aebf	0.07259893
83	0x3eb896da	0.3605259
84	0x3d227d10	0.03967005
85	0x3e7808aa	0.24222055
86	0xbd84b67a	-0.06480117
87	0xbc390de5	-0.011294817
88	0xbe93a003	-0.28833017
89	0x3ed7e4db	0.4216679
90	0x3e692f0e	0.22771856
91	0xbca1ef57	-0.019767446
92	0xbd762c3c	-0.06010078
93	0xbc0856d8	-0.008321486
94	0x3e653ef0	0.2238729
95	0xbdf3f653	-0.11912217
96	0x3ea2e2c8	0.31813645
97	0x3ea92da3	0.3304263
98	0x3e4900f7	0.19629274
99	0xbe1d7ccb	-0.15379636
100	0xbe61c22d	-0.22046728
101	0x3eb4b035	0.35290685
102	0xbda0111a	-0.07815762
103	0xbe26a312	-0.16273144
104	0xbe8cf35d	-0.2752942
105	0xbda62162	-0.08111836
106	0x3e32c92d	0.17459555
107	0xbec475d3	-0.38371143
108	0x3d828fbf	0.06375074
109	0x3ea5186a	0.3224519
110	0x3eb43db3	0.35203323
111	0xbe90d0bf	-0.2828426
112	0xbeb21fee	-0.34789985
113	0x3e2035fd	0.15645595
114	0x3e81af4d	0.25329056
115	0xbde7e731	-0.11323393
116	0x3ebefd32	0.37302548
117	0xbec4af82	-0.38415152
118	0x3ed8fcf5	0.4238049
119	0x3e251e9d	0.1612496
120	0xbea39a34	-0.31953585
121	0xbe2cb40c	-0.16865557
122	0xbd5a9bbb	-0.053371172
123	0xbdbc1963	-0.0918453
124	0xbeb82603	-0.359665
125	0xbdf9fa75	-0.12205974
126	0x3eef34e2	0.46720034
127	0x3da2cf9f	0.07949757
128	0xbe468fb2	-0.19390753
129	0x3d1454d4	0.03621371
130	0xbedbdc92	-0.4294172
131	0x3dc92cd9	0.09823007
132	0x3e3e6903	0.18594746
133	0xbe6f1fc8	-0.23351967
134	0x3e5a9012	0.21344021
135	0xbf036430	-0.5132475
136	0xbe3f7854	-0.18698245
137	0x3e5fa939	0.21841897
138	0x3e0266e1	0.12734558
139	0xbed94c5e	-0.42441076
140	0xbe500798	-0.20315397
141	0xbea14810	-0.31500292
142	0xbe84986c	-0.2589754
143	0x3e15481a	0.14578286
144	0xbe4f25c6	-0.20229253
145	0x3e3a9725	0.1822172
146	0x3e906642	0.28203017
147	0x3d6374c2	0.05553127
148	0xbf16d498	-0.5891814
149	0x3ced42e8	0.028962567
150	0xbe69959f	-0.22810982
151	0x3e9c4deb	0.30528197
152	0x3ca9ea58	0.020741627
153	0xbf0df4fd	-0.5545195
154	0x3e7a5ae9	0.24448742
155	0xbdc2bbae	-0.09508453
156	0xbc4b4bdd	-0.012408224
157	0xbc9144df	-0.017733036
158	0xbe02f739	-0.1278962
159	0xbe0c4910	-0.13699746
160	0xbddca62c	-0.10773882
161	0x3e20e6ac	0.15712994
162	0xbd9d31ed	-0.07675538
163	0x3d1387a2	0.03601802
164	0xbcb68d23	-0.022284096
165	0x3e77cde8	0.24199641
166	0x3e895dd1	0.2682939
167	0x3d89ce03	0.06728747
168	0xbe972e5f	-0.29527566
169	0xbd92d93f	-0.07170343
170	0x3e40c54d	0.18825264
171	0xbe1b68ba	-0.15176669
172	0x3e96211d	0.29322138
173	0xbe89d718	-0.26921916
174	0x3ede69f0	0.434402
175	0x3ed89671	0.42302278
176	0x3ea72f42	0.32653242
177	0x3bb7e2cd	0.0056117536
178	0x3edd964c	0.4327873
179	0xbcad21fd	-0.021134371
180	0x3f1b36dc	0.60630584
181	0xbe7cc48f	-0.24684356
182	0xbe8484d2	-0.25882584
183	0x3e887755	0.26653543
184	0x3eccb5a2	0.39982325
185	0xbe4e517c	-0.20148271
186	0x3cca9726	0.024730276
187	0xbb08c5d2	-0.0020869863
188	0x3ee8542d	0.4537672
189	0xbcc45f1d	-0.023971135
190	0x3d7173d8	0.058948368
191	0x3f0d9208	0.5530095
192	0xbd12aba5	-0.035808224
193	0x3ed48b61	0.41512588
194	0x3ea0aa77	0.31380054
195	0x3eaeb336	0.34121102
196	0x3ee63da8	0.44968915
197	0x3d3f5c79	0.04671905
198	0x3e8740e5	0.26416698
199	0xbdca92bc	-0.098912686
200	0x3e1dc7bc	0.15408224
201	0x3db517c3	0.08842423
202	0x3e544922	0.20731023
203	0xbed5262c	-0.41630685
204	0x3ebfa7f4	0.37432826
205	0xbf12e49a	-0.5738007
206	0xbed4bf93	-0.4155241
207	0xbe9a61ef	-0.30152842
208	0x3dae6cc5	0.0851684
209	0x3e2f9a16	0.17148623
210	0x3ec89a6e	0.3918032
211	0xbf17701e	-0.5915545
212	0xbe1b448c	-0.15162867
213	0x3ef63603	0.48088083
214	0x3de46649	0.11152322
215	0xbc613f03	-0.013747933
216	0xbe27d108	-0.16388333
217	0x3eb2555d	0.34830752
218	0xbf024ec4	-0.50901437
219	0x3ee2200a	0.4416507
220	0x3e1a4c1c	0.15068096
221	0x3e7d89c8	0.2475959
222	0x3e656d97	0.22405086
223	0x3d2363a8	0.03988996
224	0xbe3a650f	-0.18202613
225	0x3c65f2f2	0.014034973
226	0xbee01b16	-0.43770665
227	0x3ebff14e	0.37488788
228	0xbd827150	-0.06369269
229	0x3f05b4be	0.52228916
230	0xbe8388a0	-0.25690174
231	0xbc07950c	-0.008275282
232	0x3ece0707	0.40239736
233	0x3d9026b5	0.07038633
234	0xbb13cfba	-0.0022554235
235	0xbd3b092c	-0.045663044
236	0x3d128dc1	0.03577972
237	0xbeaf0a2a	-0.34187442
238	0xbefcefa1	-0.49401572
239	0x3c02b07f	0.00797665
240	0xbe0acc48	-0.1355449
241	0xbcd0c14d	-0.025482798
242	0x3f041b78	0.51604414
243	0x3e88acdc	0.2669438
244	0xbb332416	-0.0027334741
245	0x3d676ff5	0.056503255
246	0xbde36de4	-0.11104944
247	0x3e871072	0.26379734
248	0xbd0b3bad	-0.033992458
249	0xbbd5680a	-0.0065126466
250	0xbe8d8624	-0.27641404
251	0x3e7cc4fb	0.24684517
252	0xbe2bd74e	-0.16781351
253	0xbdcec2d4	-0.10095754
254	0x3d912403	0.07086947
255	0x3ed9df82	0.42553335

bias f4 [3]
0	0x3e4b0b61	0.1982856
1	0x3e0e44d0	0.13893437
2	0x3e274b81	0.16337396
