PPO/model/model_.pt (torch, 18176 bytes, 4 tensors)

weight f4 [256, 11]
0	0x3ef3c0c2	0.47608
1	0x3c8a0b3f	0.016851066
2	0x3df6f494	0.12058368
3	0xbf4abfce	-0.7919892
4	0x40431f9d	3.0488045
5	0x403e408f	2.9726903
6	0x403658fd	2.8491814
7	0xbd7f34bb	-0.062306147
8	0xbda883d2	-0.08228268
9	0x3e7bf139	0.24603738
10	0x3ee057f0	0.4381709
11	0xbf31c1d5	-0.6943639
12	0xbc8d74ea	-0.017267663
13	0x3f6b961b	0.9202592
14	0x3e9db71f	0.30803773
15	0xbeaa00cc	-0.33203733
16	0xbe5adad5	-0.2137254
17	0x3ee6830b	0.45021853
18	0xbfad5d90	-1.3544178
19	0xc00b6976	-2.1783118
20	0xbf42bf09	-0.76072747
21	0x3ef3597a	0.47529203
22	0x3f540195	0.82814914
23	0xbd9ae362	-0.07562901
24	0x3ecc366b	0.39885268
25	0x409d65ab	4.9186606
26	0x40a1443c	5.0395794
27	0x40960ca9	4.6890454
28	0x3ff68bef	1.9261454
29	0x3e7753ed	0.24153109
30	0x3e52358c	0.20528239
31	0x3f008461	0.50201994
32	0x3f28c052	0.6591846
33	0x3c0947d9	0.008378946
34	0xc042d310	-3.0441322
35	0x403401a8	2.812601
36	0xc0680bac	-3.6257124
37	0x3f015215	0.5051587
38	0x3f250541	0.6446114
39	0xbfc464fd	-1.5343319
40	0xbf0ab4b8	-0.54182005
41	0xbef5fe90	-0.48045778
42	0xbfb682f3	-1.4258713
43	0x3e934a27	0.2876751
44	0x3e3a5dbb	0.18199818
45	0xbe1ae452	-0.1512616
46	0xbc3af35f	-0.011410563
47	0x409054f6	4.510371
48	0x40924eaa	4.5721025
49	0x40917abf	4.5462337
50	0x40907725	4.514544
51	0xbd00435b	-0.031314235
52	0x3c435465	0.011921977
53	0x3d88103e	0.06643723
54	0x3dfa5f74	0.122252375
55	0x3e2ca4fd	0.16859813
56	0x3d8c4454	0.0684897
57	0xbdaa64be	-0.08319996
58	0x40cbbba0	6.3666534
59	0x40c361ee	6.1057043
60	0x40c91060	6.283249
61	0x40c1ae70	6.0525436
62	0x3f3af586	0.7303089
63	0x3f33208a	0.69971526
64	0x3e964720	0.2935114
65	0x3ecfd828	0.40594602
66	0x3f91183a	1.1335518
67	0x3c812a43	0.015767222
68	0x3ea5f59d	0.3241395
69	0x3fd600a6	1.6718948
70	0x3fd3a3e0	1.6534386
71	0xbf8ef425	-1.1168257
72	0x3fb4473e	1.4084241
73	0x3c1d8c2f	0.009615942
74	0x3e25e131	0.16199185
75	0x3eccffeb	0.40039
76	0x3ea55f2e	0.3229918
77	0xbf31a46b	-0.69391507
78	0x3e315015	0.17315705
79	0x3d7e1089	0.062027488
80	0xbd680868	-0.05664864
81	0xbe1b3398	-0.151564
82	0xbd16c06f	-0.036804613
83	0xbe1b8823	-0.15188651
84	0xbe747235	-0.23871692
85	0xbe450055	-0.19238408
86	0xbe9f5b49	-0.31124333
87	0xbe8e9131	-0.27845147
88	0x3e466946	0.19376096
89	0x3e612348	0.21986115
90	0x3e6cb6e8	0.23116648
91	0xbe88d457	-0.26724502
92	0xbf0216bf	-0.5081596
93	0xbebbef83	-0.3670617
94	0xbe6756f8	-0.2259177
95	0xbe727ffc	-0.23681635
96	0xbd443a0b	-0.047906917
97	0xbdfaff7c	-0.12255761
98	0xbe753014	-0.23944122
99	0xbea4021b	-0.32032856
100	0xbf1b64b3	-0.6070053
101	0xbd076d0e	-0.033062987
102	0xbe2b7f92	-0.16747883
103	0xbd578aae	-0.05262249
104	0xbe9e72ad	-0.30946866
105	0xbd8e1add	-0.069387175
106	0x3e3aca0d	0.18241139
107	0x3d12af2a	0.03581158
108	0x3e84c703	0.25933084
109	0x3e600536	0.21876988
110	0x3b990ea5	0.004670935
111	0x3d4ee505	0.05051138
112	0x3dc28f51	0.09499992
113	0xbb3fd648	-0.0029272009
114	0xbe8e6f32	-0.2781921
115	0xbf188b9c	-0.59588027
116	0xbe02e38f	-0.12782119
117	0xbeae6371	-0.34060243
118	0x3e2ec571	0.17067505
119	0x3e59b2a4	0.21259552
120	0x3d8a3057	0.06747501
121	0x3fc79586	1.5592506
122	0x3bf93536	0.00760522
123	0x3c5357a3	0.012899312
124	0xbf998671	-1.1994153
125	0x3fc21695	1.5163141
126	0x3fdda3e3	1.7315639
127	0x3fc8b98b	1.5681623
128	0x3f432948	0.76234865
129	0x3f45680a	0.77111876
130	0xbf94029b	-1.1563295
131	0xbfc7e75a	-1.5617478
132	0x3dfb9458	0.12284154
133	0xbcb9af21	-0.022666516
134	0x3df63cf8	0.120233476
135	0xbee1422e	-0.43995804
136	0xbcc18ce9	-0.023626762
137	0xbe9df521	-0.3085108
138	0xbe54eb17	-0.20792805
139	0xbddb7038	-0.107147634
140	0x3e3dd4e7	0.18538247
141	0x3e949e04	0.29026806
142	0x3dac0b6f	0.08400618
143	0xbbeb098f	-0.0071727703
144	0x3e91a310	0.2844472
145	0x3f1a6873	0.60315627
146	0xbedaaadf	-0.4270849
147	0x3af79a63	0.0018890615
148	0xbec1faa6	-0.37886542
149	0x3ccd93ae	0.025094833
150	0xbe2681e4	-0.16260487
151	0xbedf1fc7	-0.43578932
152	0xbe4969c3	-0.19669251
153	0xbe996320	-0.2995844
154	0x3e818ac0	0.2530117
155	0xbd9607bf	-0.07325696
156	0x3e47250d	0.19447728
157	0xbe692175	-0.22766669
158	0xbe83b5f9	-0.25724772
159	0xbea08bd4	-0.3135668
160	0xbee69b4a	-0.4504035
161	0x3cfe15cf	0.031016259
162	0xbdbfbef5	-0.09362594
163	0x3c9d3dcf	0.019194512
164	0x3da5c74e	0.08094655
165	0xbd1148c2	-0.035469778
166	0xbfb2e3af	-1.3975734
167	0x3eaa63f5	0.33279386
168	0xbeef8618	-0.46781993
169	0x3e6cd67c	0.23128694
170	0xbef7f2c8	-0.48427415
171	0x3e1bf053	0.15228395
172	0x3e0dd665	0.13851316
173	0xbe263638	-0.1623162
174	0x3ddf885d	0.10914681
175	0xbf446e50	-0.76730824
176	0x3ebd3be2	0.3695975
177	0x3eaf8d6c	0.34287584
178	0xbf70a1d4	-0.9399693
179	0xbdceb271	-0.10092629
180	0xbeb29c10	-0.3488469
181	0x3daa1b6c	0.083060116
182	0x3d89e3d8	0.06732911
183	0xbe1d28de	-0.15347621
184	0xbecb2d5d	-0.39683047
185	0xbdb80df7	-0.089870386
186	0xbdebcc67	-0.11513596
187	0x3ec2c82c	0.38043344
188	0x406d4629	3.7074072
189	0xbf23c295	-0.63968784
190	0x3f7ac0b4	0.9795029
191	0xc0553ff6	-3.3320289
192	0x3ef08eed	0.46984044
193	0xc039742a	-2.897715
194	0xbf2254b4	-0.63410497
195	0xbf0cd200	-0.55007935
196	0xbf23300c	-0.6374519
197	0x3edb5a67	0.4284241
198	0x3e4ed131	0.20196988
199	0x3f45cdf6	0.77267396
200	0xbf06b848	-0.5262494
201	0x3f50972b	0.81480664
202	0xc024aaa8	-2.572916
203	0xbdbf4b28	-0.09340507
204	0xc029245e	-2.6428447
205	0x3f85c577	1.0450886
206	0xc00007dc	-2.0004797
207	0xbf5e7462	-0.86896336
208	0xbf621cc1	-0.88325125
209	0xbef24ec5	-0.4732572
210	0x3d7dcf17	0.061965074
211	0xbe63a170	-0.22229552
212	0xbb83e79a	-0.004025412
213	0xbe8d8454	-0.2764002
214	0xbdd51ca8	-0.10405856
215	0xbe9d2f28	-0.3070004
216	0xbe01b7a7	-0.12667714
217	0x3db53a45	0.08849005
218	0xbe690366	-0.22755203
219	0x3bfea1bf	0.0077707465
220	0x3c484cd3	0.012225348
221	0x3e090386	0.1338025
222	0x3e7cc1ef	0.24683355
223	0xbdc77b31	-0.09740294
224	0xbec5c78e	-0.3862881
225	0xbddb2e9f	-0.10702252
226	0xbe944926	-0.28962058
227	0xbcdce249	-0.02696337
228	0xbc5d79dd	-0.013517824
229	0xbe3f833f	-0.1870241
230	0x3c7fe6b1	0.015618966
231	0xbdc1f3e9	-0.0947035
232	0xbdd30581	-0.10303784
233	0x3dafe3ee	0.08588396
234	0xbbbe0cc7	-0.005799863
235	0xbe09bb03	-0.13450246
236	0x3e0c895a	0.1372427
237	0xbe60892e	-0.2192733
238	0xbdeef8f9	-0.116685815
239	0xbe03eb4e	-0.1288273
240	0x3d12f3f3	0.03587718
241	0xbce206be	-0.027591106
242	0xbfb4c359	-1.4122115
243	0x3ecec805	0.40386978
244	0x3e97ba7b	0.2963446
245	0x3f3f5b78	0.74748945
246	0x3f30a80f	0.6900644
247	0x3f3e7071	0.7439032
248	0xbee5e386	-0.4490015
249	0x3f08cdcc	0.5343902
250	0x3f1e6dfc	0.6188657
251	0xbbeeac28	-0.007283706
252	0x3d256fcd	0.040389825
253	0xbf7e7a44	-0.9940531
254	0x4055bbcd	3.3395875
255	0x3e86b604	0.26310742

bias f4 [256]
0	0xc063585e	-3.5522685
1	0xbf26c4d5	-0.6514409
2	0xc0c87311	-6.264046
3	0x3ee34d0a	0.44394714
4	0xc09cd890	-4.901436
5	0xc0f9ca84	-7.805971
6	0xc01f0345	-2.4845746
7	0xbe13b27a	-0.14423552
8	0xbec98598	-0.39359736
9	0xbec9018e	-0.39259
10	0xbf3144ae	-0.6924542
11	0xc01c04e7	-2.4377992
12	0xbf3a3974	-0.72743917
13	0xbf55c202	-0.8349916
14	0xbeaa6935	-0.33283392
15	0xbf5658a9	-0.83729035
16	0xbf40ba92	-0.75284684
17	0x3e214033	0.15747146
18	0x3e9ca3af	0.3059363
19	0xbe211ad0	-0.15732884
20	0xbf013aeb	-0.50480527
21	0xbe8a0761	-0.26958755
22	0xc006d8c3	-2.10698
23	0x3ecc2470	0.3987155
24	0xbe9bae01	-0.30406192
25	0xbe447e73	-0.19188862
26	0xbfd8403a	-1.68946
27	0xbf828038	-1.0195379
28	0x3e5f75b1	0.2182224
29	0xbeefef9a	-0.4686249
30	0xbfa3ae23	-1.2787517
31	0xbf429bed	-0.76019174
32	0xbe92f71e	-0.2870416
33	0xbea49adf	-0.32149407
34	0xc02593af	-2.587139
35	0xbac9dd04	-0.0015400951
36	0xc002d338	-2.0441418
37	0xc09e9020	-4.9550934
38	0xbf3a081d	-0.7266863
39	0xbe8fb7ad	-0.2806982
40	0xc01e59e0	-2.4742355
41	0xc0fa794f	-7.827308
42	0xc033f263	-2.811669
43	0xbf30e0cd	-0.6909302
44	0xc0b8ca03	-5.7746596
45	0xbfc7c9e0	-1.5608482
46	0xbdf0ffc3	-0.11767533
47	0xbfa37123	-1.2768902
48	0x3ef689b8	0.48151946
49	0xbe9f6604	-0.3113252
50	0xc06006a5	-3.5004056
51	0xbfaeb684	-1.3649449
52	0xc01b3ae0	-2.4254684
53	0x3ffa64d9	1.9562026
54	0xbf09a08b	-0.53760594
55	0xbfd603b1	-1.6719877
56	0xbec914d9	-0.39273718
57	0xbea97887	-0.33099768
58	0xbeaef2e5	-0.3416969
59	0xbf96dae7	-1.1785554
60	0xbefc2e3c	-0.49254024
61	0xbf58f80c	-0.8475349
62	0x4067dc8d	3.6228364
63	0xc00f19b0	-2.2359428
64	0x3dd79853	0.105271004
65	0xbec68a00	-0.3877716
66	0xbe002990	-0.12515855
67	0xc0b5d621	-5.682389
68	0xbfb8059a	-1.437671
69	0x3fd589fa	1.6682732
70	0xbe8b9b82	-0.2726708
71	0xc04f2544	-3.2366495
72	0xbe0632b5	-0.1310528
73	0xbf106273	-0.5640022
74	0xbf162b2b	-0.5865962
75	0xbf2c182d	-0.6722439
76	0xc0022150	-2.0332832
77	0xbe66a2ea	-0.22523084
78	0xbf07d2ce	-0.5305604
79	0xbee78f66	-0.45226592
80	0xbef7b7fa	-0.4838255
81	0xc0223623	-2.5345542
82	0xc00563de	-2.0842204
83	0xc0e64ed3	-7.197122
84	0xbe8111ae	-0.252088
85	0xbf896a7b	-1.073562
86	0xbf290598	-0.6602416
87	0xbeb11a86	-0.34590548
88	0xbe477b5b	-0.1948065
89	0xbe9ce8a6	-0.30646247
90	0xbeb5246a	-0.35379344
91	0xbe9d4184	-0.30714047
92	0xbf2f0b8f	-0.6837701
93	0xbe96f895	-0.29486528
94	0x3e68aa77	0.22721277
95	0x4071b257	3.77651
96	0xbf29306a	-0.660895
97	0x3ee81aa6	0.4533283
98	0xbee5827c	-0.44826114
99	0xbfa3fd0c	-1.2811599
100	0xbe83028b	-0.25587878
101	0xbdb60548	-0.08887726
102	0x3ef87650	0.48527765
103	0xbe70d1d4	-0.23517543
104	0xc0ac7f2f	-5.3905253
105	0xbf6af7ec	-0.9178455
106	0xbe0c179d	-0.13680883
107	0x3ea508be	0.32233232
108	0xbfcd22e9	-1.6026279
109	0xc08eba33	-4.4602294
110	0xbfd8fa9e	-1.6951482
111	0xc0134655	-2.3011677
112	0xbf34a6d1	-0.7056704
113	0xbfbc06bf	-1.4689559
114	0x3ece62a5	0.40309635
115	0xbeffa2d4	-0.49928916
116	0xbe982e07	-0.29722616
117	0xbd597f03	-0.053099643
118	0xc0b12321	-5.535538
119	0xbec88f23	-0.39171705
120	0xc04eb40a	-3.2297387
121	0xbf43315a	-0.7624718
122	0xbeda2f44	-0.42614186
123	0xc00e22e8	-2.2208805
124	0xc077f068	-3.8740482
125	0xc0258270	-2.5860863
126	0xbf109d38	-0.56489897
127	0xbf6b90b1	-0.92017657
128	0xbfb9e825	-1.452397
129	0xbea58c3c	-0.32333553
130	0xc020b6f5	-2.5111668
131	0xbe9d1e5b	-0.30687222
132	0xc0461f80	-3.0956726
133	0xc00e61c9	-2.2247183
134	0xbfdfd79a	-1.7487671
135	0x3f03e146	0.51515615
136	0xbf49fa09	-0.7889715
137	0xbe4411ce	-0.19147417
138	0x3de3f59c	0.11130831
139	0xbf331b8b	-0.699639
140	0xbed19486	-0.40933627
141	0x3f930eeb	1.1488928
142	0x4039ce8b	2.9032314
143	0x403de30b	2.9669826
144	0x3e8b17f8	0.27166724
145	0xbe96cc15	-0.29452577
146	0xbee0e382	-0.43923575
147	0xc0a6e388	-5.215275
148	0x3f0b48aa	0.5440775
149	0xbfb4e743	-1.4133075
150	0x3d0a5e61	0.033781413
151	0xc0bf4608	-5.9772987
152	0xbe1cf758	-0.15328729
153	0xc0cd4dbe	-6.41574
154	0xc0b950a1	-5.7910924
155	0xc025b096	-2.588903
156	0xbed4c73f	-0.41558263
157	0xbf698211	-0.9121409
158	0xc01bee00	-2.4364014
159	0x3f9673fd	1.1754147
160	0xbf00496d	-0.5011204
161	0xbe82f71b	-0.25579152
162	0xc0da477f	-6.8212276
163	0xc0cd2c81	-6.4116826
164	0x3d00eb68	0.0314745
165	0xbdec3b78	-0.1153478
166	0xbf6f4dff	-0.9347839
167	0xbdf0a6be	-0.117505535
168	0xbff5f631	-1.9215757
169	0xbee56b47	-0.4480841
170	0xbf1568e2	-0.58363163
171	0x3ec28d14	0.3799826
172	0xbfc2eb1d	-1.5228001
173	0xbedb4eae	-0.42833465
174	0xbfdb1c78	-1.7118063
175	0xbf311434	-0.6917145
176	0xbf0486b2	-0.5176803
177	0xc08aa9f8	-4.333248
178	0xc051c264	-3.2774897
179	0xbf9b6210	-1.2139301
180	0xbf9fded6	-1.2489879
181	0xc0426e1c	-3.0379705
182	0x3ed5efba	0.4178446
183	0xbf8f70fb	-1.1206354
184	0xbf1779ee	-0.59170425
185	0x3e878867	0.26471254
186	0xbeff7363	-0.4989272
187	0xc007e8c7	-2.1235826
188	0xbf387ca8	-0.7206521
189	0xbf04070c	-0.5157325
190	0xbf14146e	-0.57843673
191	0xbfca9791	-1.5827504
192	0xc0158b21	-2.3366168
193	0xc05475c8	-3.3196888
194	0xbef38b95	-0.4756743
195	0xbdbd36f3	-0.09238996
196	0xbe88ada3	-0.26694974
197	0xbf827cce	-1.0194337
198	0xbfbf0c8b	-1.4925703
199	0xc02666c8	-2.6000233
200	0xbea403c0	-0.3203411
201	0xc06231d3	-3.534291
202	0xbf46433c	-0.7744634
203	0xbe58d2df	-0.21174191
204	0xc01b4962	-2.426354
205	0xbe94327c	-0.28944767
206	0xbf688742	-0.9083139
207	0xbee5d5fe	-0.44889826
208	0xbf475ea0	-0.7787876
209	0x3c3976aa	0.011319796
210	0x3d126f70	0.035750806
211	0xbf9bd043	-1.2172931
212	0xc0b48fb3	-5.6425414
213	0xbf9b9bea	-1.2156956
214	0xbf3e4e48	-0.743382
215	0xbec97699	-0.39348295
216	0xbf060168	-0.52345896
217	0xbeb595c2	-0.3546582
218	0x40202c08	2.5026875
219	0xbea71b0f	-0.32637832
220	0x3e47e1e6	0.19519767
221	0xbee84391	-0.4536405
222	0xbe5fd248	-0.2185756
223	0xc0571762	-3.3608022
224	0xc026974b	-2.6029842
225	0xbe12b6c9	-0.1432754
226	0xbe238864	-0.15969998
227	0xbd90fae7	-0.07079106
228	0xbea4a6a6	-0.32158393
229	0xc1020305	-8.125737
230	0xbf8cd28a	-1.1001751
231	0xbf9756df	-1.1823386
232	0xbfd5c7e8	-1.6701632
233	0xc107f245	-8.496648
234	0xc0183b67	-2.3786256
235	0xc005eeb9	-2.0926955
236	0xbd62ca0f	-0.05536848
237	0xbf6d4b79	-0.9269329
238	0xbf44edcf	-0.7692537
239	0xbf0fffc8	-0.56249666
240	0xbe36ca32	-0.17850569
241	0xbea96692	-0.33086067
242	0xbfac13db	-1.344356
243	0xbf851caf	-1.0399379
244	0xc0912039	-4.5351834
245	0xbf634258	-0.8877311
246	0xbf968a57	-1.1760968
247	0xbf68e1a1	-0.9096928
248	0xbbf0d76d	-0.0073498995
249	0xc0aa191b	-5.3155646
250	0xbd9b2bb1	-0.07576693
251	0xbf3031a7	-0.68825763
252	0xbfc5d57d	-1.5455776
253	0x3e554480	0.20826912
254	0xbf18a605	-0.59628326
255	0xbf98f86a	-1.195081

weight f4 [3, 256]
0	0x40310b2d	2.766307
1	0xbed0a257	-0.40748855
2	0x3fd54e53	1.6664528
3	0x3ce7f153	0.028313315
4	0x4027d98c	2.622653
5	0x40c1d490	6.0571976
6	0x40bc855d	5.8912797
7	0xbc4797fb	-0.012182231
8	0xbd143ef3	-0.036192846
9	0xbca21ffc	-0.019790642
10	0xbbb51d36	-0.005527164
11	0x410966b1	8.587571
12	0x3adf2133	0.0017023444
13	0x3d624b88	0.055247813
14	0xbd056f58	-0.03257689
15	0xbca57a5f	-0.020199953
16	0x3fc9e555	1.5773112
17	0xbe7678a5	-0.2406946
18	0xbd40138a	-0.046893634
19	0xbcbfcf7f	-0.023414372
20	0x3c8f34d1	0.01748124
21	0xbd34b23a	-0.044115283
22	0x3ed208c7	0.41022322
23	0x3e322457	0.17396675
24	0xbd445aef	-0.047938284
25	0xbd629950	-0.05532199
26	0x40597217	3.3975885
27	0xbd671961	-0.056420688
28	0x3de9299c	0.113848895
29	0x3d0cb1eb	0.034349363
30	0x40344d21	2.8172076
31	0x3e7e68b4	0.24844629
32	0x39641518	0.00021751632
33	0xbcb9436e	-0.02261516
34	0x40bcea70	5.903618
35	0xc05cbdd1	-3.4490855
36	0x3fbe52a9	1.4868976
37	0x40581ed7	3.3768823
38	0x3fc693e6	1.5513885
39	0x3cd28d2a	0.025702078
40	0x402eeb2e	2.7331042
41	0x40158289	2.3360922
42	0x3e143cc4	0.14476305
43	0x40632e70	3.5497093
44	0x3f84a461	1.0362664
45	0x400e18ee	2.2202716
46	0x3ccaf08b	0.024772903
47	0xbd934beb	-0.071922146
48	0xc0346edf	-2.819267
49	0x3bede2dc	0.0072597098
50	0x40fd5f14	7.917856
51	0x3c7455f4	0.014913071
52	0x3f5709c8	0.839993
53	0xbfabf672	-1.3434584
54	0xbde8b585	-0.11362747
55	0x3e9c4e24	0.30528367
56	0x3de02f28	0.10946494
57	0x3eb6ff5e	0.35741705
58	0x3baf0176	0.0053407503
59	0xbe8dd7f4	-0.27703822
60	0xbc5a8fce	-0.01333995
61	0xbc6f6da0	-0.014613539
62	0x3fae60b8	1.3623266
63	0x3ff24d58	1.8929853
64	0x3da07440	0.07834673
65	0x3e276905	0.16348656
66	0xc00e81d5	-2.2266743
67	0x410cd10e	8.801039
68	0x3e899cde	0.26877493
69	0x3cd5f7ce	0.026119139
70	0x3d3478ba	0.044060446
71	0x41589121	13.535432
72	0xbab2147a	-0.0013586425
73	0xbe1fa63e	-0.1559076
74	0x3cb113da	0.021615911
75	0x3c3f03b2	0.011658596
76	0x3f3fb5e6	0.7488693
77	0x3f27ea57	0.6559195
78	0xbce0d9d7	-0.027447624
79	0xbc145b40	-0.009054959
80	0xbc9e447f	-0.01931977
81	0x408888c6	4.266696
82	0x3dde6f99	0.10861129
83	0x40a19833	5.049829
84	0x3d77e670	0.060522497
85	0xbf81056d	-1.0079781
86	0xbfaad1d6	-1.3345287
87	0xbb596e92	-0.0033177477
88	0x3e0ff71b	0.14059107
89	0x3d881a3d	0.066456296
90	0x3cf0c1c0	0.029389262
91	0xbe5508ac	-0.2080409
92	0x3e645123	0.22296576
93	0x3d7f5818	0.062339872
94	0xbec55f71	-0.3854938
95	0x3ffb7afb	1.9646906
96	0x3d8c7648	0.06858498
97	0x3f4f1c55	0.80902606
98	0xbdca29ff	-0.09871291
99	0xbefefb8c	-0.4980129
100	0x3e951721	0.29119208
101	0x3d46d88d	0.048546363
102	0xbcb8e99e	-0.022572335
103	0x394f2375	0.00019754267
104	0x40228b91	2.5397685
105	0x3fb24a95	1.3929011
106	0x4040727f	3.0069883
107	0x3e4e3d8d	0.20140667
108	0x403b6fbc	2.9286947
109	0x40bbc8aa	5.868245
110	0xbeaeca4d	-0.34138718
111	0x3dabf9bc	0.083972424
112	0xbbcd6447	-0.0062680575
113	0x4018e38d	2.3888886
114	0xbfff71f2	-1.9956648
115	0xbecc25b2	-0.3987251
116	0x3d3961a3	0.04525913
117	0x3b8ff550	0.004393257
118	0x40beda08	5.964115
119	0xbd4318ce	-0.047631077
120	0x40aea981	5.4581914
121	0x3cb9575a	0.02262466
122	0xbd57ae0a	-0.05265621
123	0xbfa730e5	-1.3061796
124	0x410a3566	8.638037
125	0xbb13f012	-0.0022573513
126	0x3c2a1855	0.010381778
127	0x407f4cb1	3.9890559
128	0x3f094c76	0.53632295
129	0x3edbf64c	0.42961347
130	0xbe971bb2	-0.29513317
131	0xbc200e12	-0.00976898
132	0x406f4424	3.738534
133	0x403a94bd	2.9153283
134	0x407bf8ce	3.9370608
135	0xbea6ee83	-0.32603845
136	0x4016ff79	2.3593428
137	0xba3d2b2c	-0.0007216211
138	0xbc9a5949	-0.018841403
139	0x3e8d1c5e	0.27560705
140	0xbb78fa31	-0.0037990923
141	0xbde85042	-0.11343433
142	0x3fa3a1ed	1.2783791
143	0x3fe4e71f	1.7883033
144	0xbe04760e	-0.1293566
145	0x3cb6cbe4	0.02231402
146	0x400eba4c	2.2301207
147	0x3fbe4668	1.4865236
148	0xbf4c7519	-0.79866177
149	0xbd9ae499	-0.07563133
150	0x3acca892	0.0015614203
151	0x402680fc	2.6016226
152	0x3c7b3f2c	0.015334886
153	0x406bc53a	3.6839128
154	0x40127487	2.2883623
155	0x4000a21d	2.0098946
156	0xbd47b33c	-0.048754916
157	0x3cef1640	0.029185414
158	0xbdbbf0f3	-0.09176817
159	0xc017b112	-2.3701825
160	0x3d197403	0.037464153
161	0x3d6076d8	0.05480084
162	0x405c1b22	3.439156
163	0x3f7d5be9	0.9896837
164	0xbcb1ad81	-0.021689178
165	0x3bd8a6a0	0.00661166
166	0x3e1f13e5	0.15534933
167	0x3cf5798b	0.029965183
168	0x3ef45c81	0.47726825
169	0xbd151c56	-0.036403976
170	0x3d5e9a56	0.054346405
171	0xc05488da	-3.3208528
172	0x3fa0a887	1.255143
173	0x3e21da2e	0.15805885
174	0x41066188	8.398811
175	0xbb7ab48f	-0.0038254594
176	0xba9fc863	-0.0012190457
177	0x408ce04a	4.402379
178	0x40847c80	4.1401978
179	0x401f548f	2.489536
180	0xbd49ccae	-0.049267463
181	0x3ff38b6f	1.9026927
182	0x3be6fa11	0.007048853
183	0xbdbf3449	-0.093361445
184	0x3c11504d	0.008869243
185	0x3bc8dac7	0.006129596
186	0x3e2aa14e	0.16663095
187	0x40ebc473	7.3677306
188	0xbd1d1afd	-0.038355816
189	0x3f4800e9	0.7812639
190	0x3e18a6e5	0.14907415
191	0x3f6c6cf0	0.92353725
192	0x405f2933	3.4868896
193	0x3f81dbee	1.0145242
194	0xbce31c9e	-0.027723607
195	0xbf5a3c4a	-0.85248244
196	0xbc430946	-0.011904066
197	0xc0cee000	-6.4648438
198	0x3c6cd8fc	0.01445603
199	0x4021a8d1	2.5259287
200	0xbc6f7eff	-0.014617681
201	0x3fc6f13a	1.5542367
202	0x40d1dbbf	6.5580745
203	0xbc6c83c6	-0.014435714
204	0x405cc4a4	3.449502
205	0x3fc210ad	1.5161339
206	0xc0ae28a7	-5.4424624
207	0x3c636cc8	0.013880916
208	0xbc9e544f	-0.01932731
209	0x3c61ed91	0.01378955
210	0xc0422491	-3.0334818
211	0x402ca775	2.6977208
212	0x3f7cf9e7	0.9881882
213	0x3e5f822f	0.21827005
214	0x3deeb0c8	0.11654812
215	0x3c9be7c0	0.019031405
216	0x3e31a2d6	0.17347273
217	0x400694f8	2.1028423
218	0x3f61657e	0.8804549
219	0x3d78df81	0.060760025
220	0x3e2dabc6	0.16960058
221	0x3d314325	0.043276925
222	0xba1a1715	-0.0005878073
223	0x402d68c8	2.7095203
224	0xbeae2e11	-0.3401952
225	0xbe5f2db6	-0.21794781
226	0x3b9ea53a	0.004841474
227	0xbee89732	-0.45427853
228	0x3be34d8d	0.006936735
229	0x41177e6b	9.468364
230	0xbfa0264f	-1.2511691
231	0x40801498	4.002514
232	0x3e246aed	0.16056414
233	0x3fa47f9b	1.2851442
234	0x4074c706	3.8246474
235	0x3e8b60d0	0.272223
236	0xba655811	-0.00087487797
237	0xbbd86bab	-0.006604632
238	0xbe631cae	-0.22178909
239	0x3d2c268a	0.04202894
240	0x3d21e471	0.0395245
241	0x3bab6b59	0.0052313027
242	0x3f73ed83	0.9528429
243	0x40531c4a	3.2986016
244	0x3f8ef441	1.116829
245	0xbd0d807c	-0.03454636
246	0x3ef9f8c1	0.48822597
247	0xbf408c23	-0.7521383
248	0xbe08c2a6	-0.13355502
249	0x400beec0	2.1864471
250	0x3cc10514	0.023561992
251	0x3e295fa4	0.1654039
252	0x3ebed223	0.37269697
253	0xbee04da9	-0.4380925
254	0x3cc1d3da	0.023660589
255	0xbcd9a704	-0.026568897

bias f4 [3]
0	0x3d2cd301	0.042193417
1	0xbeb95726	-0.361993
2	0xbdd9d2f0	-0.10635936
