PPO/model/model.pt (torch, 18176 bytes, 4 tensors)

weight f4 [256, 11]
0	0xbeb61d2d	-0.35569134
1	0x3c7c7f65	0.015411233
2	0xbd1e91d8	-0.038713306
3	0xbea119b0	-0.3146491
4	0xbe96c292	-0.2944532
5	0x3efcd040	0.49377632
6	0x3f05d374	0.52275777
7	0xbef1b912	-0.4721151
8	0xbeff53a0	-0.49868488
9	0x3e9fac2e	0.3118605
10	0x3e97a87c	0.2962073
11	0x3f1217d6	0.5706762
12	0x3ec78fee	0.38976997
13	0x3e95dabc	0.29268444
14	0xbe08dfc9	-0.13366617
15	0xbcdb831f	-0.026795922
16	0xbcf43528	-0.029810503
17	0xbe1d54d9	-0.15364398
18	0x3ed7727f	0.4207954
19	0x3eb8a268	0.36061406
20	0x3eba3125	0.3636562
21	0x3ef32a64	0.4749328
22	0xbce7f69e	-0.028315838
23	0xbe97994c	-0.29609144
24	0xbe496eca	-0.19671169
25	0x3e9040c2	0.28174406
26	0xbe6f2164	-0.23352581
27	0xbe9c755e	-0.30558294
28	0xbea7bda0	-0.3276186
29	0xbe66f569	-0.22554554
30	0x3e93332e	0.28749985
31	0xbe4b350b	-0.19844453
32	0xbea2320c	-0.31678808
33	0x3ef13d19	0.47116926
34	0xbf0a7981	-0.5409165
35	0x3ecbeb02	0.39827734
36	0xbd27724b	-0.040880483
37	0xbe8e15eb	-0.27751097
38	0x3e148066	0.14502105
39	0xbe3b3aa6	-0.18284091
40	0xbe7ba636	-0.24575123
41	0xbc04f533	-0.008115101
42	0x3e2b2c39	0.16716088
43	0xbe3e55b2	-0.18587378
44	0x3e6c74f0	0.23091483
45	0xbf352bc4	-0.70769906
46	0xbb3a5b7b	-0.0028435874
47	0xbe7f993b	-0.24960797
48	0xbc90e600	-0.017687798
49	0xbeb62dbc	-0.35581768
50	0x3e1948c2	0.14969161
51	0x3eb8c43a	0.3608721
52	0x3db121d0	0.08649027
53	0x3ebe0b8a	0.3711818
54	0xbd36167d	-0.04445504
55	0x3d2f45cb	0.04279117
56	0x3f376a30	0.71646404
57	0xbedf6ddc	-0.43638504
58	0xbe71386f	-0.23556684
59	0x3de48938	0.11158985
60	0x3ddd3bfd	0.108024575
61	0xbd513060	-0.051071525
62	0x3e0fd8eb	0.14047591
63	0xbe38e992	-0.1805785
64	0x3dc98e0c	0.098415464
65	0xbde6dc8f	-0.11272537
66	0xbde00149	-0.10937745
67	0xbda8b85e	-0.0823829
68	0x3f1b83e7	0.6074814
69	0xbe95ee9e	-0.29283613
70	0xbe90735e	-0.28213018
71	0xbe83014e	-0.25586933
72	0xbe052341	-0.1300173
73	0x3e8f7b08	0.28023553
74	0x3e21a0e1	0.15784027
75	0x3eb4dbd6	0.35323972
76	0x3e4d83da	0.20069829
77	0x3e3e44d1	0.18580939
78	0xbb67d9b7	-0.003537757
79	0xbd2b09e4	-0.04175748
80	0xbe40fcbf	-0.18846415
81	0x3cf56950	0.029957443
82	0xbcde8ab8	-0.027165756
83	0xbe201ae3	-0.15635256
84	0xbe11d503	-0.14241414
85	0xbdb01ce6	-0.08599262
86	0x3d072880	0.03299761
87	0xbcf5f382	-0.03002334
88	0xbe2cf48b	-0.1689016
89	0xbdc4aaa9	-0.09602863
90	0x3dea6c6f	0.11446463
91	0xbe9a242b	-0.3010572
92	0xbe713b78	-0.23557842
93	0x3e96ecc6	0.2947752
94	0x3e45b37b	0.19306748
95	0xbf11c859	-0.5694633
96	0xbeca2011	-0.3947759
97	0xbd849345	-0.06473402
98	0x3e007b9a	0.1254715
99	0x3ebc3917	0.36762306
100	0x3b05859b	0.0020373825
101	0x3d0f69c2	0.035012968
102	0xbeb67448	-0.3563559
103	0xbe1e2407	-0.15443431
104	0x3e7f99d0	0.24961019
105	0xbdd9ded0	-0.10638201
106	0x3f176a15	0.59146243
107	0x3eb03102	0.3441239
108	0xbe0a5cc1	-0.13511945
109	0x3e9f269c	0.31084144
110	0x3ea63c3a	0.32467824
111	0x3f2184db	0.63093346
112	0xbf0c3b53	-0.5477802
113	0xbd109be0	-0.035304904
114	0xbd9489a6	-0.07252817
115	0x3df38a69	0.11891634
116	0xbd2a1cbd	-0.041531313
117	0xbcae23cc	-0.021257304
118	0x3d920417	0.07129686
119	0xbe2f8e89	-0.17144217
120	0xbe1d0a65	-0.15335996
121	0xbda1e2f4	-0.07904616
122	0xbec81a8c	-0.39082754
123	0xbde078ed	-0.10960565
124	0x3f0fe2a1	0.56205183
125	0x3dcf3067	0.10116654
126	0xbd96697c	-0.07344338
127	0xbe167603	-0.14693455
128	0x3e2067ad	0.15664549
129	0x3eaa200a	0.3322757
130	0xbf0bc43e	-0.54596317
131	0xbf3355f8	-0.7005305
132	0x3f28913f	0.6584663
133	0xbd80f03f	-0.06295823
134	0xbeec316c	-0.46131456
135	0xbe0e261c	-0.13881725
136	0x3d1a996e	0.03774398
137	0xbeb6a92e	-0.3567595
138	0x3e78bb02	0.24290088
139	0x3dcc0b19	0.09963054
140	0x3df6c4be	0.12049244
141	0x3e6c3eda	0.23070851
142	0xbe8e4d97	-0.2779357
143	0x3f1380e1	0.5761853
144	0x3b5b6f26	0.0033482998
145	0x3dcd939f	0.10037922
146	0x3d757894	0.059929445
147	0x3eedc56e	0.4643969
148	0x3e426308	0.1898309
149	0xbe2c5599	-0.16829528
150	0x3d398788	0.04529527
151	0xbeb96800	-0.36212158
152	0xbe025115	-0.12726243
153	0x3e9a1d3a	0.30100423
154	0x3ebb9005	0.36633316
155	0xbea59d1f	-0.32346436
156	0x3eb25c3f	0.34836003
157	0x3e7900bd	0.24316688
158	0xbe2c62f5	-0.16834624
159	0x3e1b7e8f	0.15184997
160	0xbe8b61c4	-0.27223027
161	0xbec00def	-0.3751063
162	0x3e31a7e8	0.17349207
163	0xbe0fed8b	-0.14055459
164	0x3e37789f	0.17917107
165	0xbe4b5d44	-0.19859797
166	0xbe6a0dc6	-0.22856817
167	0x3ef78616	0.48344487
168	0x3eb08adb	0.34480938
169	0x3e2a19d9	0.16611423
170	0x3ebc2496	0.36746663
171	0xbe7d8ee2	-0.24761537
172	0x3cc85a3a	0.024457086
173	0x3e189fb6	0.14904675
174	0xbbfc1466	-0.0076928614
175	0xbf09f1ab	-0.5388438
176	0x3eae3d97	0.34031364
177	0x3ed3e2f1	0.4138408
178	0x3edcdabf	0.4313564
179	0xbe94e48e	-0.29080623
180	0xbd08ea88	-0.03342679
181	0x3d16dcc1	0.03683162
182	0xbef767a4	-0.4832126
183	0x3e22e888	0.15909016
184	0xbccac374	-0.024751402
185	0xbcc49052	-0.023994599
186	0x3e4f0348	0.20216095
187	0x3e8376eb	0.25676665
188	0x3d780d60	0.06055963
189	0x3c907838	0.01763545
190	0xbcc57c45	-0.024107108
191	0x3e4b73b1	0.19868352
192	0xbdf7b517	-0.12095087
193	0xbefb64bb	-0.4910029
194	0x3e9e8321	0.30959418
195	0xbc8cd5c6	-0.017191779
196	0x3ea14de4	0.31504738
197	0x3e88a857	0.26690933
198	0x3ec50ead	0.3848776
199	0xbe4693f4	-0.19392377
200	0xbd867ffc	-0.0656738
201	0x3ee779e6	0.4521019
202	0x3cba78f6	0.022762757
203	0x3e245125	0.16046579
204	0xbe2cc3ad	-0.1687152
205	0xbeab9789	-0.3351405
206	0x3d852dcc	0.06502876
207	0x3d1f58db	0.0389031
208	0xbefcc03b	-0.4936541
209	0x3e9ad4d9	0.30240515
210	0xbeb41995	-0.35175768
211	0xbe0cd9c0	-0.1375494
212	0xbda547ab	-0.0807031
213	0xbea397d6	-0.3195178
214	0xbc4416c2	-0.0119683165
215	0xbeb837b2	-0.35979992
216	0xbe1f7cd2	-0.15574959
217	0x3da5f279	0.081028886
218	0xbe57871b	-0.21047632
219	0x3e6010eb	0.21881454
220	0xbe0ab109	-0.13544096
221	0xbe839c7b	-0.25705323
222	0x3d22262c	0.039587185
223	0x3de57dd5	0.11205641
224	0xbe769de4	-0.24083668
225	0xbe7d4953	-0.24735002
226	0xbc162b43	-0.009165588
227	0x3dc0e60a	0.094188765
228	0xbd820960	-0.063494444
229	0xbe8b876d	-0.2725176
230	0x3dbb7508	0.09153181
231	0x3e87d430	0.26529074
232	0x3db72ed0	0.08944476
233	0x3dc2431b	0.094854556
234	0x3ea949d3	0.33064136
235	0x3e132d04	0.14372641
236	0xbe4fdee8	-0.20299876
237	0xbed6daa9	-0.419637
238	0xbef2af33	-0.4739929
239	0xbeb52af5	-0.35384336
240	0x3d0ddc9b	0.034634214
241	0x3eaa2f94	0.33239424
242	0x3e01cbc1	0.12675382
243	0xbc115db7	-0.008872441
244	0xbc3fa222	-0.01169637
245	0x3e68717d	0.22699542
246	0xbe8bbf3d	-0.2729434
247	0xbe980706	-0.29692858
248	0x3e4d9e7a	0.20079985
249	0xbdbf0215	-0.09326569
250	0x3efb36b4	0.49065173
251	0x3ef96e04	0.48716748
252	0xbe0324da	-0.12807027
253	0x3eb6cef0	0.35704756
254	0x3e2ffa7e	0.17185399
255	0x3eff5be5	0.49874797

bias f4 [256]
0	0xbce007ff	-0.027347563
1	0xbea56371	-0.3230243
2	0xbe05f6f2	-0.13082483
3	0x3e27d6d7	0.16390549
4	0xbe4f06a4	-0.20217377
5	0xbd522c99	-0.051312063
6	0x3d227ae7	0.03966799
7	0xbe9a260d	-0.30107155
8	0x3d2bb1f6	0.041917764
9	0xbe7208b2	-0.2363613
10	0xbe1e0116	-0.15430102
11	0x3f131f1d	0.5746935
12	0x3d4c28f0	0.04984373
13	0xbe4b3414	-0.19844085
14	0xbe4be61d	-0.19912
15	0x3dac248b	0.084054075
16	0xbe16c76b	-0.1472451
17	0xbe92822c	-0.28614938
18	0xbe3fde38	-0.18737113
19	0xbe8f9037	-0.28039715
20	0xbeadaa7c	-0.33919132
21	0x3dd5b9c9	0.10435826
22	0xbe52f991	-0.20603015
23	0xbea854ef	-0.328773
24	0xbec1d7a3	-0.3785983
25	0x3dc11f19	0.094297595
26	0xbe5baa2b	-0.21451633
27	0xbdda15be	-0.10648678
28	0xbe34d35b	-0.1765875
29	0xbdf80f56	-0.121123
30	0x3e70beaf	0.2351024
31	0xbd4f44bc	-0.05060266
32	0xbe121944	-0.1426745
33	0x3cfcf1ca	0.030877013
34	0x3e069d96	0.13146052
35	0x3d5c5fac	0.053802177
36	0x3e7a771f	0.24459504
37	0xbb2c20a0	-0.0026264563
38	0x3bbf2f67	0.005834508
39	0x3edc2cbf	0.4300289
40	0x3ea8dcf0	0.32981062
41	0xbe63a278	-0.22229946
42	0xbe8227c7	-0.25420973
43	0xbe832bf8	-0.25619483
44	0x3e1338f2	0.14377192
45	0x3ee878f3	0.45404777
46	0x3ea98496	0.33108968
47	0xbd2f6df0	-0.042829454
48	0xbe177043	-0.14788918
49	0xbd9cf121	-0.07663179
50	0xbe2b846a	-0.1674973
51	0xbe95b030	-0.29235983
52	0xbd9bdb64	-0.07610205
53	0x3dc2c071	0.095093615
54	0x3dadd384	0.08487609
55	0xbe952e32	-0.29136807
56	0xbe94840b	-0.2900699
57	0xbddf4ec9	-0.10903699
58	0x3e33785a	0.17526379
59	0xbed6b7b9	-0.41937044
60	0xbee475f6	-0.44621247
61	0xbdb9200e	-0.09039317
62	0xbe0e640d	-0.13905354
63	0x3d1886de	0.037237994
64	0xbca6afbb	-0.020347467
65	0xbdf6a150	-0.12042487
66	0xbdf62bec	-0.12020096
67	0xbd4a8b02	-0.049448974
68	0x3cfb9e46	0.03071512
69	0xbca3e101	-0.020004751
70	0xbedb736b	-0.42861494
71	0xbdb6e02a	-0.08929475
72	0xbd071141	-0.03297544
73	0xbedafff5	-0.42773405
74	0x3d931e61	0.07183529
75	0x3dd24364	0.1026676
76	0x3e61c374	0.22047216
77	0xbe13f76e	-0.14449856
78	0xbebfbadc	-0.3744725
79	0xbec2ead2	-0.3806978
80	0xbe059da2	-0.13048413
81	0xbbda1a4b	-0.0066559664
82	0xbe1bb1d0	-0.15204549
83	0x3ecdbfe9	0.40185478
84	0x3ec0ff6d	0.37694874
85	0xbe1f41f5	-0.15552504
86	0x3db950bc	0.09048602
87	0xbeaf0222	-0.34181315
88	0x3f0bf0a2	0.5466405
89	0x3f3b8ce9	0.73261887
90	0xbea8ecb9	-0.32993105
91	0xbeb06f43	-0.34459886
92	0x3e66c375	0.22535498
93	0x3dc19a32	0.094532385
94	0xbe514a0a	-0.204384
95	0xbe9d374a	-0.30706245
96	0xbe7de874	-0.24795705
97	0xbc667177	-0.014065138
98	0x3cebfa46	0.028805863
99	0x3e4cdcd7	0.20006119
100	0x3eb85170	0.35999632
101	0xbd39ca0f	-0.045358714
102	0xbcf44f25	-0.029822895
103	0xbe2ed6ab	-0.17074077
104	0x3e743ad5	0.23850568
105	0xbe18bffa	-0.14916983
106	0x3e0ea0fd	0.139286
107	0xbdb2469c	-0.08704874
108	0xbea8cbfb	-0.32968125
109	0xbdc72fd8	-0.09725922
110	0x3e5672d5	0.20942242
111	0xbda6de76	-0.081479
112	0x3e16c1ab	0.14722316
113	0xbda47a6d	-0.08031163
114	0x3f900bec	1.1253638
115	0xbe805dc9	-0.25071552
116	0xbe4aad3d	-0.19792648
117	0xbd11f566	-0.03563442
118	0x3ee7d677	0.4528081
119	0xbe7d24ca	-0.24721065
120	0xbe639da4	-0.22228104
121	0xbed8a8f4	-0.423164
122	0x3e13e0ba	0.14441195
123	0xbe0715d7	-0.13191925
124	0xbe152cfb	-0.1456794
125	0xbd65a6fa	-0.056067444
126	0xbdd42091	-0.10357774
127	0xbe85a1ad	-0.2609991
128	0xbdcdb209	-0.10043723
129	0xbe354265	-0.17701109
130	0xbe793a41	-0.24338628
131	0x3e98678e	0.29766506
132	0xbdce6792	-0.10078348
133	0xbe998c9e	-0.29990095
134	0x3eb6bb8d	0.35689965
135	0x3dfb002c	0.12255892
136	0x3f8bf389	1.0933696
137	0xbca14a13	-0.019688642
138	0x3e389541	0.18025686
139	0xbee942af	-0.45558688
140	0x3f0b6ffa	0.5446774
141	0x3c820e30	0.015875906
142	0x3ec27b24	0.37984574
143	0x3d81bae1	0.063344724
144	0x3eb49412	0.3526922
145	0xbd8e8951	-0.06959785
146	0x3d815231	0.06314505
147	0xbe367d26	-0.17821178
148	0xbdf53c1f	-0.11974358
149	0xbe507a31	-0.20359112
150	0xbdcce8ae	-0.10005318
151	0xbcfc5a82	-0.030804876
152	0xbd58123a	-0.052751757
153	0xbe17f0bc	-0.14837927
154	0xbd03411d	-0.03204452
155	0xbd609f7e	-0.054839604
156	0xbe9cde41	-0.30638316
157	0x3db44b6d	0.08803449
158	0xbe7e440d	-0.24830647
159	0xbe2368f8	-0.15958011
160	0xbe11725a	-0.14203778
161	0xbe27b1ba	-0.16376391
162	0x3fa68818	1.3010283
163	0xbe05dbd7	-0.13072143
164	0xbe0b872f	-0.13625787
165	0xbe32d38e	-0.17463514
166	0x3e28f106	0.16498193
167	0xbdda43a8	-0.10657436
168	0xbe52e954	-0.2059682
169	0xbe177f46	-0.14794645
170	0xbdbddffa	-0.09271236
171	0xbe8ea58b	-0.27860674
172	0x3dd7868c	0.1052371
173	0x3de5c739	0.11219639
174	0x3f019548	0.5061841
175	0xbda16b88	-0.07881838
176	0x3e96cb11	0.29451802
177	0xbe393392	-0.18086079
178	0xbe7e0d54	-0.24809772
179	0xbe9b5071	-0.3033481
180	0xbd4f4afb	-0.050608616
181	0xbe1f6b96	-0.15568385
182	0xbdd52311	-0.10407079
183	0xbe5057b1	-0.20345952
184	0x3f284ec1	0.6574517
185	0x3e245b9c	0.16050571
186	0xbd6ad59e	-0.057332627
187	0xbd9c5eac	-0.07635245
188	0xbe2b445f	-0.167253
189	0xbec3b0ef	-0.38220927
190	0xbe8c2dff	-0.27378842
191	0x3eddb7e6	0.43304366
192	0x3e175788	0.14779484
193	0x3c25cea0	0.010120064
194	0xbd9d071b	-0.07667371
195	0xbeb01eb3	-0.34398422
196	0xbe89fc2b	-0.269502
197	0xbe51c8a2	-0.20486692
198	0x3e3d4766	0.18484268
199	0xbe254544	-0.16139704
200	0xbe6c4094	-0.2307151
201	0x3f1834f3	0.59455794
202	0x3e183c3a	0.14866725
203	0x3d0072ba	0.03135941
204	0x3f278365	0.6543487
205	0x3dc8fa86	0.098134086
206	0xbe24676a	-0.16055074
207	0x3e637b77	0.22215067
208	0xbef235e5	-0.47306743
209	0xbe5095d1	-0.2036965
210	0xbe592fef	-0.21209691
211	0x40002907	2.002504
212	0x3d512e92	0.051069804
213	0xbe5a1888	-0.2129842
214	0xbe91e192	-0.2849241
215	0x3ca69129	0.02033289
216	0x3db26fa3	0.08712699
217	0xbd84362e	-0.064556465
218	0xbe8b963e	-0.27263063
219	0xbe326db9	-0.17424668
220	0xbdb7a091	-0.089661725
221	0xbd62f8bd	-0.055412997
222	0x3e467d73	0.19383793
223	0x3e935429	0.28775147
224	0xbd8914dd	-0.066934325
225	0xbe1d0cea	-0.15336958
226	0xbe4c48fa	-0.19949713
227	0xbd3bd711	-0.0458594
228	0x3e0b091e	0.13577697
229	0x3e9442cc	0.28957212
230	0x3ec67ed5	0.3876864
231	0x3d8d6d44	0.069056064
232	0x3d2cb5a9	0.042165432
233	0x3f2a6a3d	0.66568357
234	0x3d87d3cd	0.06632195
235	0x3eaee00b	0.34155306
236	0x3d628257	0.055300083
237	0x3d65127c	0.05592583
238	0x3dae67d4	0.085158974
239	0xbe1fcd8a	-0.1560575
240	0xbeb6d6ae	-0.35710663
241	0xbe000ce4	-0.12504917
242	0xbe018f9f	-0.12652443
243	0xbe267513	-0.16255598
244	0x3e419272	0.1890352
245	0xbd37fefb	-0.044920903
246	0xbe3f63dc	-0.18690437
247	0x3d6affe0	0.057372928
248	0xbeaade1d	-0.33372584
249	0x3df5645f	0.11982035
250	0xbe9b55e0	-0.30338955
251	0xbe8c5a7e	-0.2741279
252	0xbe819bd0	-0.25314188
253	0x3c2f6913	0.010706204
254	0xbe86fd22	-0.26365
255	0xbe34e831	-0.17666699

weight f4 [3, 256]
0	0x3f0d3161	0.5515347
1	0xbec6b86e	-0.38812584
2	0xbecfd967	-0.40595552
3	0x3b3700d8	0.0027924087
4	0xbee49aa3	-0.44649228
5	0x3c575b5e	0.013144342
6	0xbd67f5c6	-0.056630872
7	0x3d02fd62	0.031979926
8	0x3e7447ea	0.23855558
9	0xbf1f8479	-0.6231151
10	0x3d1c1e46	0.03811481
11	0x3f082a00	0.53189087
12	0xbdba99f5	-0.09111396
13	0xbed9b307	-0.425194
14	0xbe0500ce	-0.12988588
15	0x3e9e7fc2	0.30956846
16	0xbdc60ca8	-0.09670383
17	0xbea1e0e4	-0.3161689
18	0xbd2008a4	-0.03907074
19	0x3f14a906	0.5807041
20	0xbd245415	-0.04011925
21	0xbee49551	-0.4464517
22	0xbef5bbdd	-0.4799489
23	0xbeb874f5	-0.3602673
24	0x3b5204c1	0.003204629
25	0x3ed4a3c7	0.41531202
26	0xbe0865e7	-0.13320123
27	0xbed42b27	-0.41439173
28	0xbe2e9f6c	-0.17053002
29	0xbeda2455	-0.42605844
30	0x3e26743e	0.1625528
31	0xbf119f95	-0.5688413
32	0xbd2e3413	-0.04253013
33	0x3e90207e	0.2814979
34	0x3e60be0e	0.219475
35	0x3eccb26f	0.39979884
36	0x3f03ed64	0.51534104
37	0x3d51ca88	0.05121854
38	0x3d1781ac	0.0369889
39	0x3de79f4a	0.11309679
40	0x3eadd6d5	0.33952966
41	0xbeb88aec	-0.3604349
42	0xbe9d4b8d	-0.30721703
43	0x3d5d99b9	0.05410168
44	0x3e579092	0.21051243
45	0x3e4624f3	0.19350033
46	0x3ea8596b	0.3288072
47	0x3ea56792	0.3230558
48	0xbcf3f596	-0.02978019
49	0xbde8d6ce	-0.11369096
50	0xbebd97b0	-0.3702979
51	0xbd3a0f84	-0.045424953
52	0xbd4e1551	-0.050313298
53	0x3d72d955	0.059289295
54	0x3e40b81d	0.18820234
55	0xbd875bdc	-0.06609318
56	0xbcc55f48	-0.024093285
57	0x3d95ca69	0.07313997
58	0x3ef19142	0.47181135
59	0x3c379962	0.011206003
60	0xbe51157e	-0.20418355
61	0x3e8efc40	0.27926826
62	0xbdc054f1	-0.09391201
63	0x3de5c079	0.11218352
64	0xbed198cb	-0.40936884
65	0x3b3269bb	0.0027223665
66	0x3d98bf13	0.074583195
67	0xbe832eca	-0.25621635
68	0x3cb956a5	0.022624323
69	0x3eb9bc3f	0.36276433
70	0xbe9638b7	-0.29340145
71	0xbf117909	-0.5682531
72	0xbc3d34d2	-0.011548238
73	0xbd07beb5	-0.033140857
74	0x3ea6421a	0.32472306
75	0x3d82fe18	0.06396121
76	0x3dd72a69	0.10506136
77	0x3e80522b	0.2506269
78	0xbea72400	-0.32644653
79	0xbe39dd9c	-0.18150944
80	0xba38ebe6	-0.00070541946
81	0x3daa10df	0.08303999
82	0x3c742522	0.014901431
83	0x3e8cc7bf	0.27496144
84	0x3e8c1a0f	0.2736363
85	0x3dde3e14	0.10851684
86	0x3e6e8da3	0.23296218
87	0xbdb83590	-0.08994591
88	0x3e86c689	0.26323345
89	0x3eb9e83d	0.36309996
90	0xbd616ee4	-0.055037394
91	0x3bfcfc08	0.007720474
92	0xbe98fef0	-0.29882002
93	0x3e97b702	0.2963181
94	0xbd3f5e73	-0.046720933
95	0xbd1e0799	-0.038581464
96	0xbdf7c39d	-0.12097857
97	0x3d44531e	0.04793083
98	0x3e2800a5	0.16406496
99	0x3e82f3fd	0.25576773
100	0x3ed1ad6f	0.40952632
101	0xbcdcc5c1	-0.026949765
102	0x3e8d129e	0.27553266
103	0xbe1c2efa	-0.15252295
104	0x3e8adad0	0.27120066
105	0x3ea025cf	0.31278846
106	0x3de0c4b9	0.10975022
107	0xbcdaf602	-0.026728634
108	0xbccf83c8	-0.025331393
109	0x3e9b90a3	0.30383787
110	0x3ebbb8b1	0.36664346
111	0xbe8bf799	-0.2733734
112	0x3eb38de6	0.35069197
113	0xbc869efb	-0.01643323
114	0x3e878011	0.26464894
115	0x3bf8fd8a	0.0075985836
116	0x3cb1284e	0.021625664
117	0xbee5fca5	-0.44919315
118	0x3e4cfa20	0.2001729
119	0xbea8b729	-0.3295224
120	0xbe530dad	-0.20610686
121	0xbdc53387	-0.09628969
122	0x3e7ebfbf	0.24877833
123	0xbf0ec4c5	-0.55768996
124	0xba1ffbe6	-0.00061029044
125	0xbf12ce75	-0.5734628
126	0xbe3c3558	-0.18379724
127	0xbe396863	-0.18106227
128	0xbe9c463d	-0.30522338
129	0x3d33a84a	0.043861665
130	0xbe602d4c	-0.2189228
131	0x3e80365b	0.2504147
132	0x3b8ed3ed	0.0043587596
133	0xbd830d4d	-0.06399021
134	0x3e98dfdd	0.29858294
135	0x3e8bee04	0.2733003
136	0x3f140ab7	0.5782885
137	0x3e92b068	0.28650212
138	0x3eb6f6ee	0.35735267
139	0xbd3a6b03	-0.04551221
140	0x3e40b308	0.18818295
141	0xbf1bbd78	-0.6083598
142	0x3ed43077	0.41443226
143	0xbefbd8ad	-0.49188748
144	0x3e3614d2	0.1778138
145	0x3e1baf88	0.15203679
146	0x3d87ba3c	0.06627318
147	0xbe88717a	-0.26649076
148	0xbe0838ac	-0.13302869
149	0xbd8c7622	-0.068584695
150	0xbd6886e0	-0.05676925
151	0xbf20c2f3	-0.6279747
152	0xbe02051f	-0.12697266
153	0x3ab4f1e5	0.0013805
154	0xbf3d9d9d	-0.74068624
155	0xbd2c6734	-0.04209061
156	0xbd1b56e2	-0.037924655
157	0x3e85e4eb	0.26151213
158	0xbdeb7813	-0.11497512
159	0xbe9a3db1	-0.30125192
160	0xb96e6910	-0.00022736588
161	0xbeeab942	-0.45844465
162	0x3e8ca155	0.27466837
163	0x3d443b0a	0.047907867
164	0xbdfa6f33	-0.12228241
165	0xbea98902	-0.3311234
166	0x3dd09ff8	0.101867616
167	0xbbf4a976	-0.0074664904
168	0x3e847e67	0.25877687
169	0xbdc6a7dd	-0.09699986
170	0x3da5f9e3	0.08104303
171	0xbe712e1b	-0.23552744
172	0x3e25f605	0.1620713
173	0xbeb81b85	-0.35958496
174	0x3e9a36d9	0.3011997
175	0xbda3a4e7	-0.07990437
176	0x3e988332	0.29787594
177	0xbd8ba415	-0.068184055
178	0xbe9e699b	-0.30939946
179	0xbd862fd7	-0.065520935
180	0xbca5ccde	-0.02023929
181	0x3ec4fa8b	0.384724
182	0x3d197c98	0.037472337
183	0xbe1b4e13	-0.15166502
184	0x3eaaa324	0.3332759
185	0x3e9106ff	0.2832565
186	0xbcfe50ec	-0.031044446
187	0xbd42cd3b	-0.047559004
188	0xbc94502d	-0.018104637
189	0xbcfdfec7	-0.031005276
190	0xbda076d9	-0.078351684
191	0x3e8dd1d8	0.2769916
192	0xbe1156b5	-0.14193232
193	0x3ba5de28	0.0050618835
194	0xbea72528	-0.32645535
195	0xbea84f40	-0.32872963
196	0x3c522579	0.012826317
197	0x3da16176	0.07879917
198	0x3ee4366e	0.44572777
199	0xbd8d9918	-0.06913966
200	0x3df30955	0.11867014
201	0x3ea4cd55	0.32187906
202	0x3e15bf29	0.14623703
203	0x3efa48d9	0.48883703
204	0x3ec2f299	0.38075712
205	0x3db4f5c8	0.088359416
206	0xbd10988e	-0.035301737
207	0x3e9ea48b	0.3098491
208	0xbe65a714	-0.22427016
209	0xbeac8f9d	-0.33703318
210	0xbe160cb9	-0.14653291
211	0x3ec07d91	0.375958
212	0x3e378931	0.17923428
213	0xbe8be497	-0.27322838
214	0x3b01a635	0.0019782905
215	0x3e18824e	0.14893457
216	0x3e91dbb0	0.2848792
217	0xbd93bdea	-0.072139576
218	0xbdcf1c65	-0.10112838
219	0x3c436545	0.011926
220	0xbecd3642	-0.40080458
221	0xbd7fbabf	-0.062433954
222	0x3ef0550c	0.46939886
223	0x3e57a45e	0.21058795
224	0x3eae4b92	0.3404203
225	0xbec24f39	-0.37951067
226	0xbc005113	-0.00783183
227	0xbe01aebc	-0.12664312
228	0x3e2ed8f5	0.1707495
229	0x3e12da91	0.14341189
230	0x3f31a92d	0.69398767
231	0x3e0b46a1	0.13601162
232	0xbe80153a	-0.25016195
233	0x3ef80388	0.48440194
234	0x3e5909da	0.21195164
235	0x3e8f139e	0.27944654
236	0x3e2ab511	0.16670634
237	0xbd9a801b	-0.075439654
238	0x3eba0916	0.36335057
239	0x3d93c300	0.07214928
240	0xbd4cae84	-0.04997112
241	0xbe040e21	-0.12896015
242	0xbedfdef8	-0.437248
243	0x3cb10a9d	0.021611506
244	0x3e2bbdf2	0.16771677
245	0x3e48c39b	0.19605868
246	0xbe1a570f	-0.15072273
247	0x3f06c5c5	0.5264552
248	0xbef91b46	-0.4865362
249	0xbeb70857	-0.3574855
250	0xbe77126b	-0.2412812
251	0xbea5eb29	-0.32405975
252	0xbd398f08	-0.04530242
253	0x3ef516bc	0.47868907
254	0xbe49e8c0	-0.19717693
255	0xbe2093f9	-0.15681447

bias f4 [3]
0	0x3e8a2ccf	0.2698731
1	0x3e697f38	0.22802436
2	0x3e321ae2	0.17393067
